Lightweight_CNN/Lightweight_CNN/Saved Model Parameters/UMi_LOS_freq_subband/CR_64/model_weights.pth (torch, 559211 bytes, 54 tensors)

encoder.conv.weight f4 [2, 2, 3, 3]
0	0x3e03d259	0.1287321
1	0xbded9e16	-0.11602418
2	0xb9b39139	-0.0003424974
3	0xbe51df07	-0.20495234
4	0xbe290220	-0.16504717
5	0x3e19e81a	0.15029946
6	0x3d7133b5	0.058887202
7	0xba1121f4	-0.00055363704
8	0xbe1cc7a7	-0.15310536
9	0x3df80993	0.12111201
10	0xbd215d2a	-0.03939549
11	0x3dc3104f	0.09524595
12	0xbe506ac8	-0.20353234
13	0x3d14d6c0	0.036337614
14	0xbe2e0ea3	-0.16997771
15	0x3dc89890	0.09794724
16	0xbd77c02d	-0.060486007
17	0x3d970d92	0.07375635
18	0xbd09bc87	-0.03362706
19	0x3e101d6b	0.14073722
20	0xbe0b54a4	-0.13606507
21	0x3e2cb9a2	0.16867688
22	0x3d42f149	0.04759339
23	0xbda22274	-0.07916728
24	0xbe1ba2b4	-0.15198785
25	0xbe6466eb	-0.22304885
26	0x3e2ab6a1	0.1667123
27	0x3da3f3fe	0.08005522
28	0xbdbf8079	-0.09350676
29	0x3d31ba0b	0.043390315
30	0x3cda5f1b	0.026656678
31	0x3e56e564	0.20985943
32	0x3e2455d4	0.16048366
33	0xbdd8a36a	-0.10578044
34	0xbdb59425	-0.08866147
35	0x3e2c2ba1	0.16813518

encoder.conv.bias f4 [2]
0	0xbe3fda86	-0.18735704
1	0xbe2d8ff6	-0.16949448

encoder.bn.weight f4 [2]
0	0x3f1d3382	0.6140672
1	0x3f1027b7	0.563106

encoder.bn.bias f4 [2]
0	0x3e82f909	0.25580624
1	0x3e282bde	0.16422984

encoder.bn.running_mean f4 [2]
0	0xbed2b33d	-0.41152373
1	0xbdb8526f	-0.09000098

encoder.bn.running_var f4 [2]
0	0x3b2c061e	0.0026248763
1	0x3b8ecd7d	0.004357992

encoder.dense.weight f4 [32, 2048]
0	0xbd1e4102	-0.038636215
1	0xbd8b4b1a	-0.06801434
2	0x3e215166	0.15753707
3	0x3d985e64	0.074398786
4	0xbe59e5fa	-0.21279135
5	0xbd3c11e4	-0.0459155
6	0x3e02b6dd	0.1276507
7	0xbc26e2d9	-0.010185921
8	0xbe0e3f30	-0.13891292
9	0x3d9e2a1a	0.07722874
10	0x3d9d62eb	0.07684883
11	0x3dbfd401	0.093666084
12	0xbe037b20	-0.12839937
13	0xbe0ed72e	-0.13949272
14	0x3d93ad5e	0.072108015
15	0xbcec0880	-0.028812647
16	0x3d8d12ff	0.06888389
17	0xbdb374fa	-0.08762546
18	0xbd80caef	-0.062887065
19	0x3d96d270	0.073643565
20	0x3dc20a28	0.094745934
21	0xbd2ce3e5	-0.042209525
22	0xbcbff942	-0.023434285
23	0xbd2a0299	-0.041506384
24	0xbc350df9	-0.011050695
25	0xbd898313	-0.067144535
26	0xbcc73242	-0.024315957
27	0x3d5c1228	0.053728253
28	0x3d73b971	0.059503023
29	0x3c9216ff	0.017833231
30	0xbdc1d2a6	-0.09464006
31	0x3c1c0195	0.009521862
32	0xbd558b0b	-0.052134555
33	0x3e75b5ec	0.23995179
34	0x3e08f28c	0.13373774
35	0x3ddd88f7	0.108171396
36	0x3daf6ce9	0.08565695
37	0x3d7327db	0.05936418
38	0x3d820275	0.06348125
39	0x3e0060fa	0.12536994
40	0xbdcef4aa	-0.1010526
41	0xbdf4f96f	-0.11961638
42	0x3d3c8e81	0.04603434
43	0x3d07b822	0.033134587
44	0xbc6e5192	-0.014545815
45	0xbd75f068	-0.060043722
46	0x3c27cc18	0.010241531
47	0x3c80ab7d	0.015706772
48	0x3cdc6899	0.026905345
49	0xbbccca03	-0.0062496676
50	0xbd571171	-0.052506868
51	0xbcf72a67	-0.030171586
52	0xbd8459fb	-0.06462475
53	0xbd0c3bb9	-0.034236643
54	0xbcc69482	-0.024240736
55	0xbd343aef	-0.044001516
56	0xbe2b9fcf	-0.16760181
57	0xbdf71e67	-0.12066346
58	0xbe3940e6	-0.18091163
59	0xbdc97897	-0.09837454
60	0xbe02c41b	-0.12770121
61	0xbd934063	-0.07190015
62	0xbd8a9990	-0.06767571
63	0xbdce2134	-0.10064927
64	0xbde16e62	-0.11007382
65	0x3e04835a	0.12940732
66	0x3dbea4cb	0.093087755
67	0x3dd47c73	0.10375299
68	0x3d4e15d4	0.050313786
69	0x3d0111dc	0.031511173
70	0x3cd21e9d	0.025649363
71	0x3d563b14	0.052302435
72	0xbd808bff	-0.06276702
73	0xbda26307	-0.07929044
74	0x3d24340d	0.040088702
75	0x3cfb6fc2	0.030692939
76	0xbd1132d3	-0.03544886
77	0xbd8a88e5	-0.06764392
78	0xbca13130	-0.019676775
79	0x3d33e8cc	0.043923184
80	0x3bd86bff	0.006604671
81	0xbb3f71f6	-0.0029212213
82	0xbcb6708b	-0.022270462
83	0xbb4b02ad	-0.0030976937
84	0xbd5bd7fb	-0.053672772
85	0xbcfd3203	-0.030907637
86	0x3c85b09e	0.01631957
87	0xbd00a05c	-0.03140293
88	0xbdd8910a	-0.10574539
89	0xbdbc5984	-0.09196761
90	0xbd871e8f	-0.065976255
91	0xbd879fa2	-0.066222444
92	0xbd9e3a3d	-0.07725952
93	0xbd78aba3	-0.06071056
94	0xbd49abdb	-0.04923616
95	0xbc9ad941	-0.018902423
96	0xbd73764e	-0.059438996
97	0x3da1cde0	0.07900596
98	0x3dc03039	0.09384198
99	0x3db24289	0.08704097
100	0x3d008157	0.031373348
101	0xbc91d89e	-0.017803486
102	0xbc55704b	-0.013027261
103	0x3b85cf7d	0.0040835724
104	0xbcec27a7	-0.028827501
105	0xbdaaf9a0	-0.083483934
106	0x3d1dceac	0.038527176
107	0x3d83dca1	0.06438566
108	0xbd01264a	-0.031530656
109	0xbd6d70ad	-0.057968784
110	0xbcc49589	-0.023997085
111	0x3cbee15e	0.023300823
112	0xbc7d7a00	-0.015470982
113	0x3c02f54c	0.007993054
114	0xbd06c427	-0.03290191
115	0xbbe945ae	-0.007118902
116	0xbd997bf6	-0.07494347
117	0xbbc93a3b	-0.006140975
118	0x3b73a264	0.003717565
119	0xba7575e6	-0.00093635765
120	0xbdde606d	-0.108582355
121	0xbd8e61f5	-0.069522776
122	0xbda7c616	-0.08192079
123	0xbd6386ec	-0.055548593
124	0xbd3bd300	-0.045855522
125	0xbc4d2d12	-0.012522953
126	0xbc72d6a9	-0.014821687
127	0xbbd681aa	-0.006546219
128	0x3c7af350	0.015316799
129	0x3b332812	0.0027337116
130	0x3d9d382a	0.07676728
131	0x3d3ed3be	0.04658865
132	0x3d0699d2	0.03286154
133	0xbce864a8	-0.02836831
134	0x3c01f602	0.007932188
135	0xbbad8e64	-0.0052965153
136	0xbd30a414	-0.043125227
137	0xbddc1c6d	-0.10747609
138	0x393691e8	0.00017411227
139	0x3d4933d6	0.0491217
140	0x3ca70f67	0.020393087
141	0xbd1412e3	-0.036150824
142	0xbd776eef	-0.06040853
143	0x3cb04310	0.021516353
144	0xbcc6a1da	-0.024247099
145	0x3c013115	0.007885237
146	0xbcaee990	-0.021351606
147	0x3b79c73a	0.0038113133
148	0xbd8bcc2b	-0.06826051
149	0xbc80afcb	-0.015708825
150	0xbc335170	-0.010944709
151	0xbbcbd681	-0.006220639
152	0xbddfc4de	-0.10926221
153	0xbda7848f	-0.081795804
154	0xbdd09909	-0.10185439
155	0xbd85f5d6	-0.0654103
156	0xbd265e6a	-0.040617384
157	0x3c906cb7	0.017629964
158	0xbc27aeda	-0.010234559
159	0xbb6f205a	-0.003648779
160	0xba0f85c0	-0.00054749474
161	0x3c86f062	0.016472045
162	0x3dc59f69	0.09649546
163	0x3d7d9e61	0.06191862
164	0x3c1789d8	0.009249173
165	0xbd08c088	-0.033386737
166	0xbd038de8	-0.032117754
167	0xbb926342	-0.004467399
168	0xbd68f6b1	-0.05687589
169	0xbddb9dad	-0.10723434
170	0x3c62ad01	0.013835193
171	0x3d4b1727	0.049582627
172	0xbcdc9218	-0.026925132
173	0xbd178d68	-0.03700009
174	0xbda43c0f	-0.08019268
175	0xbd050755	-0.032477695
176	0xbc327391	-0.010891811
177	0x3c631343	0.013859573
178	0xbc9ed678	-0.019389376
179	0x3cc1caed	0.023656333
180	0xbd4bfc10	-0.049800932
181	0xbcbe4ca0	-0.023229897
182	0x3bca625c	0.006176276
183	0xbc73faa9	-0.014891305
184	0xbdbbe864	-0.09175184
185	0xbd9fc328	-0.07800895
186	0xbd884be4	-0.066551
187	0xbd8c5f8c	-0.068541616
188	0xbcd4c449	-0.025972502
189	0xbc59976a	-0.013280729
190	0xbaa8ee51	-0.0012888407
191	0xbc749893	-0.014928955
192	0xbc57ca31	-0.013170765
193	0xbbd4d28a	-0.006494825
194	0x3d38cfa5	0.0451199
195	0x3d6b3a25	0.057428498
196	0xbbe45753	-0.0069684177
197	0xbd1b9038	-0.037979335
198	0xbca4592d	-0.020062054
199	0x3cb47dab	0.02203258
200	0xbd683066	-0.05668678
201	0xbdbe9668	-0.093060315
202	0x3cdfc167	0.027313901
203	0x3d32a7cb	0.04361705
204	0xbcf5f826	-0.030025553
205	0xbd2b4c72	-0.04182095
206	0xbdcc784d	-0.09983883
207	0xbc7c4ff5	-0.015399923
208	0xbcaa19f1	-0.020764323
209	0x3c8f20ef	0.017471759
210	0x3ba7d685	0.0051220083
211	0x3cb1bab7	0.021695478
212	0xbd2e6324	-0.042575017
213	0x3cb8fc62	0.022581283
214	0x3b17cff9	0.0023164733
215	0x3cc4f511	0.024042638
216	0xbde78b9c	-0.11305925
217	0xbd6abfd9	-0.057311866
218	0xbd5b435f	-0.053531047
219	0xbda4b6c9	-0.08042676
220	0xbd2755c0	-0.040853262
221	0x3c9d8f24	0.019233294
222	0xbc0d68fe	-0.008630989
223	0xbbadcbf3	-0.0053038537
224	0xbd1a3798	-0.037650675
225	0x3a9d2cfd	0.0011991557
226	0x3d46dfd2	0.048553295
227	0x3d250cb2	0.04029531
228	0xbaef70e9	-0.0018267903
229	0xbd27ae3d	-0.04093765
230	0xbd809411	-0.062782414
231	0x3b858c2f	0.004075549
232	0xbd8a8004	-0.06762698
233	0xbdf28a9e	-0.118428454
234	0x3cc21569	0.02369185
235	0x3cb5622e	0.022141542
236	0xbcb00b2e	-0.021489706
237	0xbd2cf058	-0.042221397
238	0xbd95049f	-0.07276272
239	0xbcda110a	-0.026619453
240	0xbc9f06d8	-0.019412443
241	0x3b3a780d	0.0028452903
242	0x3a993402	0.0011688473
243	0x3d387074	0.04502912
244	0xbd023484	-0.031788364
245	0x3cafd00d	0.021461511
246	0x3d0fea89	0.03513578
247	0x3c7ef0ab	0.015560309
248	0xbe0bf138	-0.13666236
249	0xbdace9ce	-0.08443032
250	0xbd9c7adb	-0.0764062
251	0xbcef4417	-0.029207272
252	0xbd2abba3	-0.04168285
253	0xbc1664fb	-0.009179349
254	0x3b964b9a	0.004586649
255	0xbc5104e5	-0.012757515

encoder.dense.bias f4 [32]
0	0x3c7fec9b	0.015620376
1	0x3ded4f19	0.11587352
2	0xbc578581	-0.013154388
3	0x3d166eff	0.036726948
4	0x3e25df70	0.16198516
5	0x3d45ed8e	0.048322253
6	0x3ce833a8	0.028344944
7	0x3dd493f4	0.10379782
8	0x3d9bcba2	0.07607199
9	0x3e85153a	0.25992757
10	0xbd56ca38	-0.052438945
11	0xbdd42171	-0.10357941
12	0x3c9a2645	0.018817076
13	0x3d38a491	0.045078818
14	0x3d1d98dc	0.038475856
15	0x3d3f2ad8	0.04667172
16	0x3b9910f7	0.004671212
17	0x3d229510	0.03969294
18	0xbc780a42	-0.015139164
19	0x3c90b6c3	0.017665273
20	0xbdb9d0ca	-0.090730265
21	0xbddcca91	-0.10780824
22	0xbcad3e97	-0.02114801
23	0xbcc4cc1b	-0.024023106
24	0xbda36afb	-0.07979389
25	0xbd44a2f7	-0.048006978
26	0x3d1a219c	0.03762971
27	0xbdfb451b	-0.1226904
28	0xbbd01e8b	-0.0063512973
29	0x3ced8f8b	0.02899911
30	0xbcffe593	-0.0312374
31	0xbca49f3d	-0.020095462

decoder.dense.weight f4 [2048, 32]
0	0xbc8a73b6	-0.016900878
1	0xbe2f27ec	-0.17105073
2	0xbdb9860b	-0.0905877
3	0x3ee0b4a7	0.43887827
4	0xbeac664c	-0.33671796
5	0x3d969139	0.07351918
6	0x3ce1b5e1	0.027552547
7	0xbd88b510	-0.0667516
8	0xbd14afb0	-0.03630036
9	0xbe567c3d	-0.2094583
10	0x3e08a4b8	0.13344085
11	0x3ea95676	0.33073777
12	0xbdbdfdc7	-0.0927692
13	0xbe0e4dad	-0.13896818
14	0xbdcea356	-0.100897476
15	0x3e13c9d2	0.14432457
16	0x3d41de65	0.047331233
17	0x3e35fbc2	0.17771819
18	0x3db4d17c	0.088290185
19	0xbf02133d	-0.50810605
20	0xbdceb5b8	-0.10093254
21	0xbdd6a514	-0.10480705
22	0xbd836865	-0.06416396
23	0xbdb5223a	-0.08844419
24	0xbe9ce6a2	-0.3064471
25	0xbae4cdb8	-0.0017456328
26	0xbd113841	-0.03545404
27	0x3e6e6fc6	0.23284826
28	0x3c55610d	0.013023627
29	0x3e63da64	0.22251278
30	0x3d41f2b5	0.047350604
31	0x3e0ed0f6	0.139469
32	0x3e4bd4f2	0.19905451
33	0xbeb5ed97	-0.3553283
34	0xbe739bbb	-0.23789875
35	0x3e8e73a2	0.27822596
36	0xbe1726fd	-0.14760967
37	0x3e9db341	0.30800822
38	0x3e67760a	0.22603622
39	0x3d0d35c8	0.034475118
40	0x3d462466	0.048374556
41	0xbeb2e696	-0.34941548
42	0x3cf27778	0.029597983
43	0x3ed568a2	0.4168139
44	0x3d9da8e2	0.076982275
45	0xbe165a63	-0.14682917
46	0xbe8c1358	-0.27358508
47	0x3e248640	0.16066837
48	0xbb6f8937	-0.0036550292
49	0x3cbab081	0.022789242
50	0x3e2d9534	0.16951448
51	0xbf7278b1	-0.9471541
52	0xbe96f3d6	-0.29482907
53	0x3dcdb438	0.100441396
54	0x3e859bd4	0.2609545
55	0xbe9484e8	-0.2900765
56	0xbd9c56f8	-0.076337755
57	0xba36cf29	-0.00069736183
58	0xbea3b5c1	-0.31974605
59	0x3e30bb0f	0.17258857
60	0xbd8e6f00	-0.06954765
61	0xbe04b94f	-0.12961315
62	0x3e07dfeb	0.13269012
63	0x3e955a05	0.29170242
64	0xbdd70b13	-0.10500159
65	0x3da0657c	0.078318566
66	0xbe1bfed1	-0.15233923
67	0x3ee7f9e2	0.45307833
68	0xbd2a7ecc	-0.04162483
69	0x3f040e6e	0.5158452
70	0xbecfca3e	-0.40583986
71	0xbe2ffea9	-0.17186989
72	0xbe2e3c97	-0.170153
73	0x3d9f3feb	0.07775863
74	0xbe33202c	-0.17492741
75	0xbd30949a	-0.043110467
76	0x3e784be3	0.24247698
77	0xbe4f1171	-0.20221497
78	0xbdcd6d94	-0.10030666
79	0x3cc5d468	0.024149135
80	0x3db6b55c	0.0892131
81	0xbcaea409	-0.021318452
82	0xbee29a48	-0.44258332
83	0xbf2cc116	-0.67482126
84	0xbea95806	-0.3307497
85	0xbc297af8	-0.010344259
86	0x3dba9e18	0.09112185
87	0xbcdb704d	-0.026786948
88	0xbe71500d	-0.23565693
89	0xbd019df5	-0.03164478
90	0x3e98dbde	0.29855245
91	0xbe91141c	-0.28335655
92	0x3c8b833d	0.017030353
93	0xbee522d5	-0.44753137
94	0x3dc4afd5	0.0960385
95	0xbe9446e2	-0.2896033
96	0x3f16feb6	0.5898241
97	0xbe0cd3f9	-0.13752736
98	0xbeb4b5f1	-0.3529506
99	0x3c9f74b8	0.019464836
100	0x3ce5a859	0.028034376
101	0x3f090fd1	0.5353976
102	0x3f1ae4e9	0.6050554
103	0xbf1f3546	-0.62190664
104	0xbde17c68	-0.11010057
105	0xbe6c049c	-0.23048633
106	0x3be3dfa1	0.006954149
107	0x3e27df8c	0.1639387
108	0xbec946a9	-0.39311722
109	0xbe48a6fe	-0.19594952
110	0xbd07bc37	-0.03313848
111	0x3e563900	0.20920181
112	0xbbf0d257	-0.007349293
113	0x3d11d1d7	0.03560051
114	0x3e0543f3	0.13014202
115	0xbe71759b	-0.23580019
116	0xbd1e080a	-0.038581885
117	0xbd87f6d0	-0.066388726
118	0x3eafe01d	0.34350672
119	0x3e9d3b98	0.3070953
120	0x3c9b25f0	0.018938988
121	0x3e5bfb47	0.21482573
122	0xbe967333	-0.29384765
123	0x3e5a0f63	0.21294932
124	0x3d257f03	0.04040433
125	0xbf0a5915	-0.5404218
126	0x3d28ca68	0.041208655
127	0x3e1d732e	0.15375969
128	0xbe7d4030	-0.24731517
129	0xbcc74f57	-0.024329824
130	0x3c00036b	0.007813315
131	0xbe4a82df	-0.19776486
132	0x3e5ad9d8	0.21372163
133	0x3d87bade	0.06627439
134	0xbef956ad	-0.4869894
135	0xbe1305d7	-0.14357696
136	0x3df96590	0.12177575
137	0x3e7b270a	0.24526611
138	0xbdbd1985	-0.09233383
139	0xbc8f5807	-0.01749803
140	0x3ed533f1	0.4164119
141	0x3d8dec25	0.069298066
142	0x3e1ab9c8	0.15109932
143	0x3e8c1dff	0.27366635
144	0xbe38b329	-0.18037094
145	0xbe89cfb4	-0.26916277
146	0x3e99d09f	0.30041978
147	0xbea55b55	-0.32296243
148	0xbec56887	-0.3855631
149	0xba2d5639	-0.00066122744
150	0xbdd3157e	-0.10306834
151	0xbdcaa2f1	-0.0989436
152	0x3dcdb391	0.10044015
153	0xbd2cb41c	-0.042163953
154	0xbea01128	-0.3126309
155	0x3dba895b	0.0910823
156	0x3df4b6cb	0.119489275
157	0x3cb949f6	0.022618275
158	0x3e901204	0.28138745
159	0xbdce1603	-0.10062792
160	0x3ec8e59f	0.39237687
161	0x3e892f31	0.26793817
162	0x3e2759ed	0.16342898
163	0x3e57f1e7	0.21088372
164	0xbd4388b9	-0.04773781
165	0x3ccf1971	0.025280686
166	0x3d880953	0.066424035
167	0xbf218238	-0.63089323
168	0x3e61828c	0.22022456
169	0x3e2fed9d	0.17180486
170	0xbf15232b	-0.5825679
171	0xbe8d40e6	-0.27588576
172	0x3e7a1992	0.24423817
173	0x3dc35566	0.09537773
174	0xbf2cc623	-0.6748983
175	0xbecd8db1	-0.40147164
176	0xbe4536d2	-0.19259194
177	0xbec1bba5	-0.37838474
178	0xbeb89b15	-0.36055818
179	0xbe88cb24	-0.26717484
180	0xbe01e0ac	-0.12683362
181	0xbe83faee	-0.25777382
182	0x3e9317c4	0.2872907
183	0xbdb7e52b	-0.08979257
184	0x3e327df0	0.17430854
185	0x3e7297d7	0.23690735
186	0x3e8bcd95	0.27305284
187	0xbe882dc9	-0.2659743
188	0x3d78bb6c	0.060725614
189	0xbe644330	-0.22291255
190	0x3e59a5ad	0.21254607
191	0x3e4339e0	0.19065046
192	0x3e77ee0e	0.24211904
193	0x3cab66f1	0.02092311
194	0xbed2d179	-0.4117544
195	0xbdfc65c4	-0.12324098
196	0x3d06bbf0	0.032894075
197	0x3ec65b3d	0.38741484
198	0x3ea26d4d	0.31724015
199	0xbeab581b	-0.33465657
200	0xbe2ee24f	-0.17078517
201	0xbef91dcc	-0.48655546
202	0x3e8ac40b	0.27102694
203	0x3cefbd29	0.029265003
204	0xbea32b47	-0.31868955
205	0xbe0d319d	-0.13788457
206	0xbe175c7b	-0.14781372
207	0xbe1c40ba	-0.15259066
208	0xbdf9fa7d	-0.1220598
209	0x3e08bb5b	0.1335272
210	0xbed4fd9e	-0.41599745
211	0xbea9bdbb	-0.33152565
212	0xbd676e9d	-0.056501973
213	0x3d33aab1	0.043863956
214	0x3e93ab51	0.28841642
215	0x3e8529b8	0.2600839
216	0x3e8f1b1e	0.27950376
217	0x3e9b6ba1	0.30355552
218	0x3e221dfb	0.15831749
219	0xbdc3b2af	-0.095555656
220	0x3e615b63	0.22007518
221	0xbe12eeda	-0.14348927
222	0x3d7d2e71	0.061811868
223	0xbd024ff8	-0.031814545
224	0x3edca04d	0.4309105
225	0x3e8ff391	0.28115514
226	0x3cfa4c13	0.030553853
227	0x3e17c14a	0.14819828
228	0xbd978c1d	-0.07399771
229	0x3cfd2019	0.030899094
230	0x3f18d43e	0.59698856
231	0x3e44275c	0.1915564
232	0xbd173939	-0.036919806
233	0xbe84490f	-0.2583699
234	0x3e2eb162	0.17059854
235	0x3ca79328	0.020455912
236	0xbecb6c3c	-0.39731014
237	0x3dc1530c	0.09439668
238	0x3c76635e	0.015038339
239	0x3e0179a6	0.12644061
240	0x3d8ba7b3	0.068190955
241	0x3e2ca7d6	0.168609
242	0x3e1f0fd8	0.15533388
243	0x3ee01a45	0.43770042
244	0x3e3d48b8	0.18484771
245	0xbe990ec0	-0.29894066
246	0x3e8a3dcc	0.27000272
247	0x3e99c740	0.30034828
248	0x3dbf0455	0.09326998
249	0x3c2ad02e	0.0104256105
250	0xbe8b5390	-0.2721219
251	0x3df6323a	0.12021299
252	0xbe7b46e5	-0.24538763
253	0xbeac08e7	-0.33600542
254	0xbf0fdd55	-0.561971
255	0x3ece56ce	0.40300602

decoder.dense.bias f4 [2048]
0	0x404518a0	3.079628
1	0x3f885798	1.0651731
2	0xbf981974	-1.1882768
3	0xbf4f79d1	-0.8104525
4	0x3eab9914	0.33515227
5	0xbfa704b2	-1.3048308
6	0xbdd09907	-0.10185438
7	0x3fd6870b	1.6759962
8	0x3fdc08e6	1.7190216
9	0x3eb29b61	0.3488417
10	0xbd452a2f	-0.048135933
11	0xbe4715a2	-0.19441846
12	0x3ea2f4d1	0.31827405
13	0x3f1d4170	0.61427975
14	0xbeb9c884	-0.36285794
15	0x3f9efaad	1.242025
16	0x3f757fc5	0.95898086
17	0x3df1b642	0.11802341
18	0xbe761019	-0.24029578
19	0xbb9526aa	-0.0045517283
20	0x3f3fa0ca	0.7485472
21	0x3eb12627	0.3459942
22	0xbe8d3641	-0.27580455
23	0x3fa9abe9	1.3255588
24	0x3f1645e9	0.58700424
25	0x3e98605a	0.2976101
26	0xbdc00a0a	-0.09376915
27	0xbed81a31	-0.42207482
28	0xbea0e089	-0.31421307
29	0x3ea41ab8	0.32051635
30	0x3e9841e2	0.29737765
31	0xbf353569	-0.7078462
32	0x3fdbdea7	1.7177323
33	0x3f5269c1	0.8219262
34	0x3d2c541e	0.042072408
35	0x3dd83dc1	0.105586536
36	0x3ee3c3af	0.44485232
37	0x3eeb02f5	0.45900694
38	0x3efd22e5	0.49440685
39	0x3fd6050b	1.6720289
40	0x3fc21b2b	1.5164541
41	0x3ea56fa7	0.32311746
42	0xbf23316b	-0.6374728
43	0x3decafec	0.11556992
44	0x3f3277c6	0.6971401
45	0xbfc25a49	-1.5183803
46	0xbe41cda5	-0.18926103
47	0x3f4f724a	0.81033766
48	0x3fe11fdb	1.7587847
49	0x3ef0dd50	0.47043848
50	0xbed09502	-0.40738684
51	0xbe9793d5	-0.29604974
52	0x3e82fa84	0.25581753
53	0x3e930eb9	0.2872217
54	0xbeed40fb	-0.4633864
55	0x3f071fd1	0.52782923
56	0x3faccc37	1.3499821
57	0x3dee9e51	0.1165129
58	0xbf63b47a	-0.8894726
59	0xbf23f852	-0.6405078
60	0xbadb8c0c	-0.0016750111
61	0x3b8d2fc8	0.0043086745
62	0xbf801c62	-1.0008662
63	0xbe8fd40a	-0.2809146
64	0x4010e683	2.2640693
65	0x3e97b01f	0.29626557
66	0xbe9ec092	-0.31006294
67	0xbde49cbb	-0.111627065
68	0x3f1a7300	0.60331726
69	0x3e5fe318	0.21863973
70	0xbed8b967	-0.4232895
71	0x3f84e8bb	1.0383524
72	0x3f899f22	1.0751688
73	0xbe55004b	-0.20800893
74	0xbed24c71	-0.41073945
75	0x40000899	2.0005248
76	0x3f0051bc	0.50124717
77	0x3ef0885b	0.4697903
78	0xbea96646	-0.3308584
79	0x3f83f5f7	1.0309438
80	0x3f20fc4c	0.62884974
81	0x3c1d531c	0.009602334
82	0xbfae80e1	-1.3633081
83	0x3f1f8b92	0.6232234
84	0x3ebbc0f6	0.36670655
85	0xc008003e	-2.1250148
86	0xbe0d563c	-0.13802427
87	0x3f34fa11	0.7069407
88	0x3f9e89be	1.2385786
89	0x3e7c62be	0.24647042
90	0x3ed4d960	0.41572094
91	0xbf42ec99	-0.7614227
92	0xbf20a387	-0.6274952
93	0xbec6f10f	-0.38855788
94	0x3e08c10a	0.13354889
95	0xbec6b057	-0.38806412
96	0x3ffbb7dc	1.9665484
97	0x3f6921e0	0.91067314
98	0x3e2fe6fb	0.17177956
99	0x3ff0dfdf	1.881832
100	0x3e865d46	0.26243037
101	0x3edc6e78	0.4305303
102	0xbe872555	-0.2639567
103	0x3f8eedf2	1.1166365
104	0x3f9b92be	1.2154157
105	0x3eb60ed7	0.35558197
106	0xbd8b9870	-0.068161845
107	0x3d0e1b8d	0.034694243
108	0xbecb0575	-0.396526
109	0x3eebd3e0	0.46060085
110	0xbb5af76e	-0.003341164
111	0x3f643b0b	0.8915259
112	0x3fe6143f	1.7974929
113	0x3f037fdf	0.5136699
114	0x3c3219f6	0.010870447
115	0x3f927bf2	1.1444075
116	0x3f108c47	0.56464046
117	0x3ef7f4d7	0.48428985
118	0xbee8d424	-0.4547435
119	0x3f1867c8	0.5953336
120	0x3ee225de	0.44169515
121	0x3f3e27cd	0.7427948
122	0xbf16833b	-0.5879399
123	0xbe07952c	-0.13240498
124	0xbf1ea755	-0.6197408
125	0x3e2b030c	0.16700381
126	0xbf132eb1	-0.5749312
127	0x3beae535	0.007168437
128	0x3f9f1d79	1.2430869
129	0x3f5bbd6c	0.8583591
130	0xbebd6094	-0.36987746
131	0x3f2cdc77	0.675239
132	0x3f0a0d0a	0.53926146
133	0xbf8f1968	-1.1179628
134	0x3eb985bb	0.3623484
135	0x3f17d773	0.59313124
136	0x3f6b3e26	0.91891706
137	0x3c1d890d	0.009615195
138	0xbe5578e0	-0.20846891
139	0x3dff0af5	0.12453262
140	0x3f637ef6	0.888656
141	0xbfea8985	-1.8323218
142	0xbde2a272	-0.1106614
143	0x3f0397bc	0.51403403
144	0x3faa2f87	1.3295754
145	0x3e9e8612	0.30961663
146	0xbf4193c4	-0.756161
147	0x3f59e374	0.8511269
148	0x3f2494ac	0.64289355
149	0xbfdbedd9	-1.718196
150	0xbe046a8c	-0.1293127
151	0x3f107e69	0.56442887
152	0x3fb5e194	1.4209466
153	0x3e40e7e1	0.18838455
154	0x3dc6ff9d	0.09716723
155	0xbec13807	-0.37738058
156	0xbe09ad30	-0.13444972
157	0x3effed08	0.49985528
158	0x3f11614a	0.56789076
159	0x3f43a21e	0.76419246
160	0x3f4b2b3b	0.7936284
161	0x3f0212ab	0.50809735
162	0xbeee5298	-0.4654739
163	0x3f9973ac	1.1988425
164	0x3e84ff0a	0.2597583
165	0x3f098795	0.53722507
166	0xbdafc11a	-0.08581753
167	0x3ea948df	0.3306341
168	0x3fe14c10	1.7601337
169	0x3d09d72c	0.03365247
170	0xbf885724	-1.0651593
171	0x3fbd6f7c	1.4799647
172	0x3eeb5c53	0.45968875
173	0x3f0712fa	0.5276333
174	0x3f33c04a	0.70215285
175	0x3f28e90e	0.65980613
176	0x3f91abd5	1.1380564
177	0x3b2f0d28	0.0026710723
178	0xbd12774c	-0.0357583
179	0x3f12662a	0.5718714
180	0xbd669c34	-0.05630131
181	0x3f0f2f8b	0.5593192
182	0x3edc653c	0.43045986
183	0x3f351118	0.7072921
184	0x3ec2b5ee	0.38029426
185	0x3e2a44f7	0.1662787
186	0x3d2bfdba	0.04199002
187	0xbeea2e0c	-0.45738256
188	0xbe5e2e29	-0.21697296
189	0xbe63eacc	-0.22257537
190	0x3f29d309	0.6633764
191	0x3f3c675f	0.7359523
192	0x3f8b3621	1.0875894
193	0xbe4f91a1	-0.20270397
194	0xbd5487d6	-0.051887356
195	0x3f7da243	0.99075717
196	0xbdab8388	-0.08374697
197	0xbf7896f5	-0.9710534
198	0x3dbe194b	0.09282168
199	0x3f9aa397	1.2081174
200	0x3f3fe208	0.7495427
201	0xbef2a29e	-0.47389692
202	0xbf05dfd8	-0.52294683
203	0x3d9aa4d5	0.075509705
204	0x3e82f2b9	0.25575808
205	0xbfe098f5	-1.7546679
206	0x3eb46178	0.35230613
207	0x3fa49c36	1.2860172
208	0x3e55c9ba	0.20877734
209	0x3ef674bb	0.48135933
210	0xbe851204	-0.25990307
211	0x3e1536bd	0.14571662
212	0x3f57132f	0.84013647
213	0x3f36097f	0.7110824
214	0x3e8fe3a0	0.28103352
215	0x3f717fb6	0.94335496
216	0x3e98845a	0.29788476
217	0x3ea528b9	0.3225763
218	0xbf5344e8	-0.8252702
219	0xbebd56f8	-0.36980414
220	0xbea0649b	-0.31326756
221	0xbec5d3dd	-0.386382
222	0x3f31a6a2	0.69394886
223	0x3f46ec1e	0.77704036
224	0x3f6ab377	0.9168009
225	0x3e99c80c	0.30035436
226	0xbf3f5843	-0.7474405
227	0x3ec264c4	0.37967503
228	0x3f1bfad0	0.60929585
229	0xbf78fdff	-0.9726257
230	0x3eecb7fe	0.46234125
231	0x3f0c6862	0.54846776
232	0x3dc092b5	0.09402982
233	0x3d21bf58	0.03948912
234	0xbf1c7ba8	-0.61126184
235	0x3e047fbd	0.12939353
236	0x3e2d73a2	0.16938642
237	0xbfb0b646	-1.3805625
238	0x3ec23f40	0.3793888
239	0x3f6f6d28	0.93525934
240	0x3f45c679	0.7725597
241	0x3e817e36	0.25291604
242	0xbf8761d5	-1.0576731
243	0x3e969242	0.2940846
244	0x3f2d2e8f	0.6764917
245	0xbfee3f41	-1.8613054
246	0x3e86d67d	0.26335517
247	0x3f80b491	1.0055104
248	0x3f88922d	1.0669609
249	0x3f70e8b4	0.94105077
250	0xbf8c6ff8	-1.097167
251	0xbe447297	-0.19184338
252	0xbd3d0bfd	-0.04615401
253	0x3f78b539	0.97151524
254	0xbedee564	-0.43534386
255	0x3de22e4c	0.11043987

decoder.conv1.weight f4 [4, 2, 1, 1]
0	0xbe1d3c51	-0.1535504
1	0x3e1be75a	0.15224972
2	0x3cff274a	0.031146664
3	0xbdbd4d97	-0.09243315
4	0x3f1e488a	0.61829436
5	0xbe8124f0	-0.25223494
6	0x3ef2d568	0.4742844
7	0xbee7d784	-0.45281613

decoder.conv1.bias f4 [4]
0	0xbf295df8	-0.6615901
1	0x3edbf31c	0.42958915
2	0x3ef1b62a	0.47209293
3	0xbf0fbc0f	-0.5614633

decoder.bn1.weight f4 [4]
0	0x3f6a603d	0.915531
1	0x3f74f0b9	0.95679814
2	0x3f70a9ed	0.94009286
3	0x3f667582	0.9002305

decoder.bn1.bias f4 [4]
0	0xbe026435	-0.12733538
1	0x3aaa26ba	0.0012981512
2	0xbd28b8cc	-0.04119186
3	0xbdd33e00	-0.1031456

decoder.bn1.running_mean f4 [4]
0	0xbf0b0447	-0.543034
1	0x3ef1e8c1	0.4724789
2	0x3f16bc55	0.5888112
3	0xbec1b464	-0.3783294

decoder.bn1.running_var f4 [4]
0	0x3f1610c3	0.58619326
1	0x3db396e9	0.08769018
2	0x40286e99	2.6317503
3	0x404f2591	3.2366679

decoder.conv2_upper.weight f4 [4, 4, 3, 3]
0	0xbd005508	-0.031331092
1	0xbd300e63	-0.04298247
2	0x3dfb6daf	0.1227678
3	0x3c98f16f	0.018669812
4	0xbd04ea37	-0.032449927
5	0xbda6857a	-0.081309274
6	0xbb9f914c	-0.0048696157
7	0xba2bf6c0	-0.0006559901
8	0xbd17be5a	-0.037046768
9	0x3c8f7ee5	0.017516563
10	0xbe72d736	-0.23714909
11	0x3e83c9ad	0.25739804
12	0xbda88b04	-0.0822964
13	0xbdeb6474	-0.11493769
14	0xbdc53e77	-0.09631055
15	0x3d8f0e5b	0.0698516
16	0x3ce28c7e	0.027654883
17	0x3d628a02	0.055307396
18	0xbceeb144	-0.029137261
19	0x3dfcb46c	0.123391
20	0xbe7ca97f	-0.24674033
21	0xbc8cfd21	-0.017210545
22	0xba381bf7	-0.000702321
23	0x3be48cfe	0.0069748154
24	0xbe5068f0	-0.2035253
25	0xbe7d31b6	-0.24725994
26	0xbc877ed2	-0.016539965
27	0x3d0c5096	0.03425654
28	0x3dc4e8f7	0.09614747
29	0xbc0d465a	-0.00862273
30	0x3e21e2ac	0.15809125
31	0x3aa326ec	0.0012447513
32	0x3ab06a5f	0.0013459435
33	0x3e863c00	0.2621765
34	0x3df5204d	0.119690515
35	0xbc6c0deb	-0.014407615
36	0x3cff2c35	0.03114901
37	0x3e0c3b93	0.13694601
38	0x3e426bc0	0.18986416
39	0xbe20426d	-0.1565034
40	0x3e4ccbfa	0.19999686
41	0x3e1213cd	0.14265366
42	0xbe640ff3	-0.22271709
43	0x3db79562	0.089640394
44	0xbd18860c	-0.037237212
45	0xbe1a6f0a	-0.1508142
46	0xbe360723	-0.1777616
47	0x3d97bae1	0.07408691
48	0xbd6a041f	-0.057132836
49	0x3d0e60e8	0.034760386
50	0xbd9da957	-0.07698315
51	0xbe67e05f	-0.22644185
52	0xbe3b47df	-0.18289135
53	0xbd76b2f3	-0.060229253
54	0x3d059b18	0.032618612
55	0x3e5acecb	0.21367948
56	0xbde27178	-0.11056799
57	0x3da80700	0.0820446
58	0xbd9ea3f5	-0.07746116
59	0xbc11cbe9	-0.008898714
60	0x3e54b1da	0.2077097
61	0x3e66f021	0.2255254
62	0xbd128bb1	-0.03577775
63	0xbcfcaa9c	-0.030843072
64	0xbd5b18bd	-0.05349039
65	0xbd7c47a4	-0.06159176
66	0x3bc9ea5b	0.0061619706
67	0x3dc14103	0.09436228
68	0xbdb4e8b1	-0.08833445
69	0x3ce7329f	0.02822238
70	0xbd1e8c11	-0.038707796
71	0x3dfa40b6	0.12219374
72	0x3df182e3	0.11792543
73	0xbd9efb5f	-0.07762789
74	0x3cc06808	0.023487106
75	0x3dbd941b	0.092567645
76	0xbcbb0437	-0.022829158
77	0x3d550212	0.052003928
78	0x3da238d8	0.07920998
79	0xbd958a50	-0.07301772
80	0x3e02c931	0.12772061
81	0xbe9d4c6a	-0.30722362
82	0x3dd4b710	0.10386479
83	0xbd608e0b	-0.054822963
84	0xbe39f350	-0.18159223
85	0xbe45072b	-0.19241016
86	0x3d94de11	0.07268918
87	0xbd01033d	-0.03149723
88	0xbdad14f5	-0.08451263
89	0xbdc9e8a1	-0.098588236
90	0x3e19c676	0.15017113
91	0x3c8b1a6f	0.016980378
92	0xbd04a826	-0.03238692
93	0x3e19c6e9	0.15017284
94	0x3e5ddc02	0.21665958
95	0x3b919a43	0.0044434383
96	0x3dbfa35b	0.093573295
97	0x3e2556e5	0.16146429
98	0xbcf9fcb2	-0.030516002
99	0x3db4a552	0.08820595
100	0xbe46165e	-0.1934447
101	0x3e5809e2	0.2109752
102	0xbd3cee84	-0.046125904
103	0xbe6db410	-0.2321322
104	0xbbbfd3a3	-0.0058540865
105	0xbcf37b7c	-0.029721968
106	0xbd8a4dda	-0.0675313
107	0x3dcfbac5	0.10143045
108	0xbd23021d	-0.039796937
109	0xbe1f636c	-0.1556527
110	0x3d9ca430	0.07648504
111	0x3d91e5cd	0.07123909
112	0x3d06f715	0.03295048
113	0x3d90bf12	0.07067694
114	0xbde4dd4e	-0.11175023
115	0xbc3c6714	-0.011499185
116	0xbdff6bbf	-0.12471723
117	0x3d08b0e6	0.03337183
118	0x3cf142a2	0.029450718
119	0x3b373140	0.002795294
120	0xbdc25df2	-0.09490575
121	0xbe19c25d	-0.1501555
122	0x3ce1967f	0.027537582
123	0xbe34d6b4	-0.17660028
124	0xbdb22a6d	-0.08699498
125	0x3d3cdf5f	0.04611146
126	0xbd048f96	-0.032363497
127	0x3e30028c	0.17188472
128	0x3dc3ab16	0.095541164
129	0xbc363cac	-0.011122864
130	0x3dca33ca	0.09873159
131	0x3b489f85	0.003061266
132	0xbd6e2a10	-0.058145583
133	0xbd9e85a9	-0.077403374
134	0x3d335e10	0.043790877
135	0x3d0c2539	0.034215186
136	0xbd0745ac	-0.03302543
137	0xbcd41b06	-0.025891792
138	0xbd9fb4ad	-0.07798133
139	0x3e5210c3	0.20514207
140	0x3bc8d462	0.0061288336
141	0x3e486b95	0.1957229
142	0x3ddc3233	0.10751762
143	0x3cdde2d1	0.027085694

decoder.conv2_upper.bias f4 [4]
0	0x3d91fc7f	0.07128238
1	0xbd81ad00	-0.06331825
2	0xbbb2ef57	-0.0054606604
3	0xbe69e656	-0.22841772

decoder.bn2_upper.weight f4 [4]
0	0x3f3ae7cd	0.7300995
1	0x3f259db2	0.6469375
2	0x3f4fdc6c	0.8119571
3	0x3f318c1b	0.6935441

decoder.bn2_upper.bias f4 [4]
0	0x3d712f09	0.058882747
1	0xbd649414	-0.05580528
2	0xbe16ffce	-0.14746019
3	0xbe1097c2	-0.14120391

decoder.bn2_upper.running_mean f4 [4]
0	0xbe9050d9	-0.28186682
1	0x3d2aa833	0.041664314
2	0x3dffb209	0.124851294
3	0x3dd22f7c	0.10262963

decoder.bn2_upper.running_var f4 [4]
0	0x3e25e04d	0.16198845
1	0x3df854cb	0.12125548
2	0x3de344ca	0.11097105
3	0x3dd7064a	0.104992464

decoder.conv2_upper2.weight f4 [8, 4, 3, 3]
0	0xbe159be1	-0.14610244
1	0xbe7547f3	-0.23953228
2	0x3e2bf683	0.16793256
3	0xbd9bdcca	-0.076104715
4	0xbdccadd5	-0.09994093
5	0xbd85c0f0	-0.065309405
6	0xbdce4e72	-0.10073556
7	0x3e85605f	0.26050088
8	0x3d8213ed	0.06351457
9	0xbcbb281c	-0.022846274
10	0xbe26479c	-0.16238254
11	0x3c0df89a	0.008665228
12	0xbdd62e1c	-0.104580134
13	0x3e03c34e	0.12867472
14	0x3ddeb307	0.108739905
15	0x3e89d953	0.26923618
16	0xbc080d23	-0.008303913
17	0x3d69233a	0.05691836
18	0xbd5169e8	-0.05112639
19	0xbe52b83c	-0.20578092
20	0x3e0f4be8	0.139938
21	0x3deafadd	0.114736296
22	0x3dee7f9a	0.11645432
23	0x3d51130c	0.051043555
24	0x3c945f57	0.018111868
25	0xbe5cd58e	-0.2156584
26	0xbe416084	-0.18884474
27	0x3d4e78f9	0.050408337
28	0x3dbb7227	0.09152632
29	0x3e475178	0.19464672
30	0xbde493a2	-0.11160971
31	0x3d7490d1	0.05970842
32	0xbd6c32b3	-0.057665538
33	0xbca2d596	-0.019877236
34	0xbe8d8d3f	-0.27646825
35	0xbd4869a2	-0.048928864
36	0x3d33dccd	0.043911744
37	0x3d2129bb	0.039346438
38	0x3cd392fd	0.025826925
39	0xbd3c36ad	-0.04595058
40	0xbeac5713	-0.33660182
41	0x3e3c36ac	0.1838023
42	0x3dfefdf9	0.12450785
43	0xbc5227ee	-0.012826903
44	0x3a0e6bbe	0.0005432925
45	0xbe6311c0	-0.2217474
46	0x3e0055fe	0.12532803
47	0xbe2af873	-0.16696338
48	0xbd706dc0	-0.058698416
49	0x3e4591fc	0.1929397
50	0x3d8d033a	0.06885381
51	0xbea37165	-0.3192245
52	0xbb0db6ce	-0.0021623853
53	0xbd169348	-0.036761552
54	0xbe378de1	-0.17925216
55	0x3db97c22	0.090568796
56	0xbdf8bf70	-0.12145889
57	0x3e6346b1	0.22194935
58	0x3d93a24f	0.07208692
59	0xbe2395d7	-0.15975128
60	0xbdfe98bb	-0.12431475
61	0x3e3050ec	0.17218369
62	0x3be3a294	0.006946871
63	0xbcb5e128	-0.02220209
64	0xbd111894	-0.03542383
65	0x3d116e0b	0.035505336
66	0xbe46b279	-0.1940402
67	0xbd8e0684	-0.069348365
68	0xbd4d4ed0	-0.05012399
69	0x3d04e88a	0.03244833
70	0x3d9d34f8	0.076761186
71	0xbdfdf5af	-0.12400376
72	0x3dd83658	0.1055724
73	0x3c6004d6	0.013673028
74	0x3eb7c42a	0.3589185
75	0xbd7decc4	-0.061993375
76	0xbe5efa92	-0.21775272
77	0x3e49bbfc	0.19700617
78	0x3e8538f0	0.26020002
79	0xbd7951e9	-0.06086913
80	0x3e725073	0.23663501
81	0x3e027005	0.12738045
82	0x3d50f33a	0.05101321
83	0xbdbeef61	-0.09323002
84	0xbddd7f52	-0.108153
85	0xbcf71e5e	-0.030165847
86	0xbe28bdae	-0.16478607
87	0x3e055864	0.13022
88	0x3e0bf873	0.13668995
89	0x3e7c32f4	0.24628812
90	0xbe148c84	-0.14506727
91	0xbd0144ea	-0.031559862
92	0xbd99e559	-0.07514448
93	0xbe05aeb8	-0.13054931
94	0xbd2d02b8	-0.04223892
95	0xbd2dc315	-0.042422373
96	0xbc9a31a9	-0.018822508
97	0x3bbac994	0.0057002995
98	0xbd3dde82	-0.046354778
99	0xbe9f037f	-0.31057355
100	0x3e053f97	0.13012539
101	0xbe265863	-0.16244654
102	0x3d96ed00	0.07369423
103	0x3e8f3c28	0.27975583
104	0x3c8ddcdd	0.01731723
105	0x3ceef6db	0.029170444
106	0xbdcce858	-0.100052536
107	0x3dd7b276	0.105320856
108	0x3c787a36	0.015165856
109	0xbe5505fa	-0.20803061
110	0xbe05b4ba	-0.13057223
111	0xbd1a3b04	-0.037653938
112	0xbe13d2a4	-0.14435822
113	0xbdc64a00	-0.09682083
114	0x3da74671	0.081677325
115	0x3de4ddf6	0.11175148
116	0xbcec3e61	-0.028838338
117	0xbbc7cc0a	-0.0060973214
118	0xbe6efe0a	-0.23339096
119	0x3e3ecbe3	0.18632464
120	0xbdd7a441	-0.10529376
121	0xbdcbc939	-0.099504896
122	0x3df0522d	0.11734424
123	0xbdcd39b1	-0.100207694
124	0xbc4ccba8	-0.012499727
125	0x3e4ccff2	0.200012
126	0xbe96f0e3	-0.29480657
127	0x3ec170a4	0.3778125
128	0xbd6a1aca	-0.057154454
129	0x3cba515a	0.02274387
130	0x3bff9c2b	0.007800599
131	0x3d433ee3	0.047667395
132	0xbe714549	-0.23561586
133	0xbdc40b96	-0.09572522
134	0x3e018351	0.1264775
135	0xbc925471	-0.01786253
136	0x3d9759bd	0.07390163
137	0x3cdd22e5	0.026994178
138	0x3c54c238	0.0129857585
139	0xbd4b5a84	-0.04964687
140	0x3d97d93a	0.074144796
141	0xbdfd1d49	-0.12359101
142	0xbd5bc8cc	-0.05365829
143	0xbe3c83f0	-0.18409705
144	0xbd085b82	-0.033290394
145	0x3c3420c3	0.010994139
146	0x3cd35ba9	0.025800543
147	0x3ded73f4	0.11594382
148	0x3e5757bf	0.21029566
149	0xbc99a80a	-0.018756885
150	0xbe5943f8	-0.21217334
151	0x3e36a832	0.17837599
152	0x3ea0ee81	0.31431964
153	0xbe0c550f	-0.13704322
154	0x3d129a23	0.035791527
155	0x3e296fa9	0.16546501
156	0xbeb023f9	-0.34402445
157	0x3e1c0bf1	0.1523893
158	0xbe6f33e9	-0.23359646
159	0x3d7d0c00	0.061779022
160	0x3e72da64	0.23716122
161	0x3ce2af9c	0.027671628
162	0x3e27cb78	0.16386211
163	0x3dce38f9	0.100694604
164	0xbd6bf0d3	-0.057602715
165	0xbd0bcdc8	-0.034131795
166	0xbe6b5868	-0.22982943
167	0xbd8b9f7f	-0.06817531
168	0x3e190c9b	0.14946215
169	0x3e6e6e2a	0.23284212
170	0x3df77d61	0.12084461
171	0xbd4e1abe	-0.050318472
172	0xbe0b998f	-0.13632797
173	0x3e911d88	0.28342843
174	0xbd712b71	-0.05887932
175	0xbd4b2505	-0.04959585
176	0xbe062a92	-0.13102177
177	0x3b8117ed	0.0039396198
178	0x3d817002	0.06320192
179	0x3e82f114	0.25574553
180	0x3e456b0a	0.19279113
181	0xbe5d7abd	-0.21628852
182	0xbc4e382f	-0.012586637
183	0xbe331f14	-0.17492324
184	0xbe07f126	-0.13275585
185	0xbdeb85d4	-0.11500135
186	0x3de022eb	0.1094416
187	0xbe1bd095	-0.15216286
188	0xbe692685	-0.227686
189	0x3dce86be	0.10084294
190	0x3e5d908b	0.2163717
191	0x3dfd2ade	0.12361692
192	0xbe11cfb1	-0.14239384
193	0xbd4ac5f1	-0.049505178
194	0xbe89f518	-0.26944804
195	0x3da71e1f	0.08160042
196	0xbd64c974	-0.055856183
197	0x3e82ef49	0.25573185
198	0x3db493e5	0.08817271
199	0xbe80ecfd	-0.25180808
200	0x3e19a816	0.15005526
201	0xbd97f501	-0.07419778
202	0x3d973b42	0.073843494
203	0xbcc55e28	-0.024092749
204	0xbef0a0f8	-0.4699781
205	0x3e5f1144	0.2178393
206	0xbe097cd9	-0.13426532
207	0xbd86b607	-0.06577688
208	0x3d192987	0.03739312
209	0x3d21bb70	0.039485395
210	0xbb5de915	-0.0033860852
211	0xbd02fd68	-0.03197995
212	0xbd91af1a	-0.07113476
213	0x3e301d93	0.17198782
214	0x3d00367d	0.031301964
215	0xbd1fc0d7	-0.039002266
216	0x3ce6ea97	0.028188033
217	0x3dcefa5b	0.10106345
218	0x3c3922e1	0.01129982
219	0xbe5e22de	-0.21692988
220	0xbe8cb2f4	-0.2748028
221	0xbd908d8c	-0.07058248
222	0x3ccfe7d5	0.0253791
223	0xbe9ec772	-0.3101154
224	0x3ea5275d	0.32256594
225	0xbdb642fc	-0.08899495
226	0xbdd54bfe	-0.10414885
227	0x3d9f6c90	0.077843785
228	0x3e494578	0.19655406
229	0x3e036d70	0.12834716
230	0x3e38e229	0.18055023
231	0x3e8cc811	0.2749639
232	0xbe3ce0ab	-0.18445079
233	0xbd062079	-0.032745812
234	0x3cdcfa2d	0.026974762
235	0xbdb696af	-0.08915459
236	0xbea2464b	-0.31694254
237	0x3e20f68f	0.15719055
238	0xbe1ed6ce	-0.15511629
239	0x3d8bcf6f	0.06826674
240	0xbe54c1d4	-0.20777065
241	0xbdb10d1a	-0.08645077
242	0x3e157ca2	0.14598325
243	0x3e2b6765	0.1673866
244	0x3c6d438d	0.014481437
245	0x3cf7fb00	0.030271053
246	0xbce252df	-0.027627407
247	0xbe1e1a81	-0.15439798
248	0xbdab9f6e	-0.08380018
249	0x3d291921	0.04128373
250	0xbd26e8d7	-0.040749397
251	0x3e30edae	0.17278168
252	0xbdaf18c7	-0.08549648
253	0xbe3f39a0	-0.18674326
254	0x3e836ef8	0.256706
255	0x3c3cdd31	0.0115273455

decoder.conv2_upper2.bias f4 [8]
0	0x3dd3f957	0.10350292
1	0xbcc6c27d	-0.024262661
2	0x3ca6bef6	0.02035473
3	0xbd56838b	-0.052371543
4	0xbd03dd39	-0.032193396
5	0xbd254117	-0.040345278
6	0x3d505a01	0.050867084
7	0xbcf52547	-0.029925002

decoder.bn2_upper2.weight f4 [8]
0	0x3f209b92	0.6273738
1	0x3f36602b	0.7124049
2	0x3f1c3368	0.6101594
3	0x3f51a7c6	0.81896627
4	0x3f26e60b	0.6519477
5	0x3f291ff4	0.6606438
6	0x3ef6faa4	0.482381
7	0x3f4e322c	0.80545306

decoder.bn2_upper2.bias f4 [8]
0	0x3c7b2114	0.015327711
1	0xbc93aae1	-0.018025817
2	0x3d2de02d	0.04245012
3	0x3dbf7fa5	0.09350518
4	0xbda02feb	-0.078216396
5	0xbb38daba	-0.0028206543
6	0x3cf509f7	0.029911978
7	0xbd111337	-0.035418715

decoder.bn2_upper2.running_mean f4 [8]
0	0x3d53ee10	0.051740706
1	0xbd881e6f	-0.0664643
2	0x3d8901ba	0.066897824
3	0xbdd4216c	-0.10357937
4	0xbd88c727	-0.0667861
5	0xbde14d19	-0.11001033
6	0x3d7c3ee8	0.06158343
7	0xbcdec6e0	-0.02719444

decoder.bn2_upper2.running_var f4 [8]
0	0x3ed93583	0.4242364
1	0x3f030b63	0.5118925
2	0x3efd7db4	0.49509966
3	0x3ec16325	0.37770954
4	0x3f28cea1	0.6594029
5	0x3f29f7d7	0.663938
6	0x3f329494	0.6975796
7	0x3ec72072	0.3889194

decoder.conv2_lower.weight f4 [4, 4, 3, 3]
0	0x3dd3a236	0.10333674
1	0xbc8b6835	-0.017017463
2	0x3c45efab	0.012081067
3	0x3e1cea97	0.15323864
4	0x3da74ab0	0.081685424
5	0x3d964a0d	0.07338343
6	0x3e1da6b3	0.15395622
7	0xbcdae4e7	-0.026720477
8	0x3e0e0321	0.13868381
9	0x3d804441	0.062630184
10	0xbd159532	-0.036519237
11	0x3e5b2ea2	0.21404508
12	0xbd68b3fb	-0.056812268
13	0x3de23814	0.11045852
14	0x3d142315	0.03616627
15	0xbdfc6252	-0.123234406
16	0xbdacbc2b	-0.08434328
17	0x3d995c32	0.07488288
18	0xbdaa4a96	-0.083150074
19	0xbdd00fef	-0.10159289
20	0xbd82ac8f	-0.06380569
21	0xbd86d46b	-0.06583484
22	0xbe20d10d	-0.15704747
23	0x3d815f3e	0.06316994
24	0xbce7472e	-0.028232183
25	0xbda91790	-0.08256447
26	0xbe14bf9e	-0.14526221
27	0x3de38dd9	0.1111104
28	0x3c025ada	0.007956231
29	0xbdde6b6c	-0.10860333
30	0x3df96b11	0.121786244
31	0xbdc27d0b	-0.09496506
32	0xbe1d385f	-0.15353535
33	0x3ddc630e	0.10761081
34	0xbdaa329e	-0.08310436
35	0x3dd9a08f	0.10626327
36	0x3d077351	0.03306896
37	0x3d7f0842	0.062263735
38	0x3dad0b37	0.08449405
39	0x3d1f582a	0.03890244
40	0xbdc27255	-0.09494463
41	0xbd8a0539	-0.067392774
42	0x3c8194dc	0.015818052
43	0x3d813080	0.06308079
44	0xbcbfc8a5	-0.023411104
45	0xbe69b4e3	-0.22822909
46	0xbc8ae2b8	-0.016953811
47	0x3b2c549b	0.0026295546
48	0xbe1b2382	-0.15150264
49	0xbe236555	-0.15956624
50	0x3c52c27f	0.012863754
51	0xbe45384e	-0.1925976
52	0xbddad510	-0.1068517
53	0xbd13ea15	-0.03611191
54	0x3d7253d8	0.05916199
55	0x3c8a2f56	0.016868275
56	0xbc247028	-0.010036506
57	0x3e135261	0.14386894
58	0x3dfc5718	0.12321299
59	0xbdeb1ebc	-0.114804715
60	0xbd5ad108	-0.053422004
61	0x3d9572a8	0.072972596
62	0x3de0d4e5	0.109781064
63	0x3d2047bd	0.039130915
64	0xbc180d43	-0.009280506
65	0x3da98d0e	0.08278857
66	0xbdb1a5e3	-0.086742185
67	0x3e21129c	0.15729755
68	0x3db82bc3	0.08992722
69	0xbb187d55	-0.0023268063
70	0x3d94d99b	0.072680674
71	0x3e30db35	0.17271121
72	0x3dac2457	0.08405369
73	0xbdd8215e	-0.10553239
74	0x3c0bd868	0.008535482
75	0xbdbef3f9	-0.09323878
76	0xbc98ea70	-0.018666476
77	0x3e273cf6	0.16331849
78	0x3e12f124	0.143498
79	0x3d16cc80	0.03681612
80	0x3d1a8ee9	0.037733946
81	0x3dd22c80	0.10262394
82	0x3c7c437a	0.015396947
83	0x3e287cc0	0.16453838
84	0xbdab252d	-0.083567
85	0xbd86af17	-0.065763645
86	0xbdcadd9e	-0.099055514
87	0xbe0dbbbe	-0.13841149
88	0xbcfe5397	-0.031045718
89	0xbcc5ba31	-0.024136635
90	0xbe83c6c0	-0.25737572
91	0xbbe86390	-0.007091947
92	0xbe7b2e59	-0.24529399
93	0x3a58fdac	0.0008277546
94	0x3e3fdb83	0.18736081
95	0x3bddd1b9	0.0067693857
96	0xbe00db73	-0.12583713
97	0x3c180a1e	0.009279756
98	0xbe831781	-0.2560387
99	0x3d9c96b1	0.076459296
100	0xbd41a5a9	-0.047277126
101	0xbd90cbba	-0.07070108
102	0x3e2b2efc	0.16717142
103	0x3e643eaf	0.22289537
104	0xbb137e7d	-0.0022505813
105	0x3e6e066a	0.23244634
106	0x3e321642	0.17391303
107	0x3ce52539	0.02797185
108	0xbdb978ef	-0.090562694
109	0x3db04d43	0.086084865
110	0xbcef9058	-0.029243633
111	0xbbd757d2	-0.0065717483
112	0x3d7fe417	0.062473383
113	0x3c908685	0.017642269
114	0xbbad55b7	-0.005289759
115	0x3d7e9b08	0.062159568
116	0x3db3d922	0.08781649
117	0xbd612efa	-0.05497644
118	0x3e3da9c7	0.18521796
119	0x3d9a1d0e	0.07525073
120	0x3d6df356	0.05809339
121	0x3e14c161	0.14526893
122	0xbd90baf4	-0.070669085
123	0xbdc87f6b	-0.09789928
124	0x3e1ceb46	0.15324125
125	0x3cf7b6f3	0.030238604
126	0xbdd9bf58	-0.10632199
127	0xbe2d4c6f	-0.16923688
128	0xbd916c26	-0.07100706
129	0x3ccc1c1c	0.024915747
130	0xbd8e9c33	-0.069633864
131	0x3d2512bd	0.040301073
132	0xbdb1b2b2	-0.086766616
133	0xbe3d4597	-0.18483578
134	0xbe066c79	-0.13127317
135	0x3e2c7554	0.16841632
136	0x3c9d7728	0.019221857
137	0x3dd4148a	0.1035548
138	0xbc7528c7	-0.014963335
139	0xbde8ee93	-0.113736294
140	0x3e0a65a2	0.13515332
141	0x3e2b2a8a	0.16715446
142	0xbc553b69	-0.013014653
143	0x3e30b6d9	0.17257251

decoder.conv2_lower.bias f4 [4]
0	0x3d05ad1d	0.032635797
1	0xbce6eae7	-0.028188182
2	0xbd1b5222	-0.037920125
3	0xbe61f85c	-0.22067398

decoder.bn2_lower.weight f4 [4]
0	0x3f4a1637	0.7894015
1	0x3f45b6b8	0.7723193
2	0x3f15aaec	0.5846393
3	0x3f81f59a	1.0153077

decoder.bn2_lower.bias f4 [4]
0	0x3d768646	0.060186647
1	0xbd585659	-0.052816723
2	0xbdcbbc20	-0.09947991
3	0xbe37d281	-0.17951395

decoder.bn2_lower.running_mean f4 [4]
0	0xbe15b699	-0.14620437
1	0x3ddc878a	0.107680395
2	0x3bf94c26	0.0076079546
3	0x3e85c322	0.26125437

decoder.bn2_lower.running_var f4 [4]
0	0x3d655b81	0.055995468
1	0x3ddec842	0.1087804
2	0x3ea013de	0.31265157
3	0x3da4ab32	0.080404654

decoder.conv2_lower2.weight f4 [8, 4, 3, 3]
0	0xbeb8cdae	-0.3609442
1	0x3be37f7e	0.0069426885
2	0x3ab13178	0.0013518771
3	0x3d109902	0.03530217
4	0x3e314037	0.17309652
5	0xbc98cbc1	-0.018651845
6	0x3d5c8141	0.053834204
7	0x3dae9b19	0.08525676
8	0x3d04fdb8	0.032468528
9	0xbd9e49ea	-0.07728942
10	0xbcdf243d	-0.02723896
11	0x3d0d8f8b	0.03456072
12	0xbd19cfcb	-0.037551682
13	0x3e48604a	0.19567981
14	0xbddebf36	-0.10876314
15	0x3ccff8d6	0.025387209
16	0x3d66ce64	0.056349173
17	0xbe477ec2	-0.19481948
18	0xbdeb5775	-0.114912905
19	0xbdce959e	-0.10087131
20	0x3dd1488d	0.10218916
21	0xbeb92fac	-0.36169183
22	0xbe158392	-0.14600971
23	0xbdcf342d	-0.101173736
24	0xbd8ec84d	-0.06971798
25	0xbceeca82	-0.029149298
26	0x3e75bf76	0.23998818
27	0x3e5155f1	0.2044294
28	0x395188d0	0.0001998276
29	0xbdd5d12f	-0.10440289
30	0xbe9206a8	-0.28520703
31	0xbd53d7ed	-0.051719595
32	0xbd962b76	-0.07332508
33	0x3d8c0989	0.06837756
34	0x3eac974e	0.33709186
35	0xbdb1864e	-0.08668195
36	0xbc1ca481	-0.009560705
37	0xbd2ba722	-0.041907437
38	0xbd8630f4	-0.06552306
39	0x3df00750	0.11720145
40	0xbe0f8bf8	-0.14018238
41	0xbdb233fd	-0.08701322
42	0x3dd91d06	0.10601239
43	0xbc5f3c89	-0.013625273
44	0xbe084505	-0.13307579
45	0xbdd7bbe6	-0.10533886
46	0x3d8f59df	0.069995634
47	0x3df9dfbd	0.12200878
48	0xbc5f4d28	-0.013629235
49	0x3db2ebca	0.087363794
50	0x3c8a924c	0.016915463
51	0x3e1ce390	0.15321183
52	0xbd94b3ff	-0.07260894
53	0x3e2d1062	0.16900781
54	0xbd0b68ae	-0.034035377
55	0x3d9e9e29	0.077450104
56	0x3c1d46e0	0.009599417
57	0xbde72735	-0.11286775
58	0x3e3db72a	0.18526903
59	0xbe4185a8	-0.18898642
60	0xbdf69008	-0.120391905
61	0xbcaa220c	-0.020768188
62	0x3d2e9681	0.042624
63	0xbde9d8b3	-0.11418285
64	0xbd865e5f	-0.065609686
65	0x3e87b44e	0.2650475
66	0xbd30d371	-0.043170396
67	0x3c2cf38b	0.010556112
68	0x3eb9a8e0	0.36261654
69	0xbe24031b	-0.1601681
70	0x3d146da1	0.036237363
71	0x3e351500	0.17683792
72	0xbd3d8b7d	-0.046275605
73	0xbdf45f7a	-0.11932273
74	0xbe033d8b	-0.12816446
75	0x3dd6b35d	0.104834296
76	0x3e2ec165	0.17065962
77	0xbe500fa5	-0.20318468
78	0x3d2a59be	0.04158949
79	0x3e029b3d	0.12754531
80	0xbdc0109f	-0.0937817
81	0x3e223805	0.15841682
82	0x3de34f24	0.11099079
83	0x3dbf63a5	0.093451776
84	0xbdae6003	-0.085144065
85	0x3c41cb46	0.011828249
86	0x3c605546	0.013692206
87	0x3df7a577	0.12092107
88	0x3cbac8ea	0.022800881
89	0x3c95eff2	0.018302891
90	0x3dada23d	0.0847821
91	0x3dee5dcb	0.11638983
92	0xbdbf8f5a	-0.09353514
93	0x3d3c854a	0.04602555
94	0x3ba47fdc	0.005020125
95	0xbd0f5a9f	-0.034998532
96	0x3ec026aa	0.37529498
97	0x3e29e88b	0.16592614
98	0xbd81c411	-0.06336225
99	0xbd8b2e10	-0.06795895
100	0x3e09ff07	0.13476191
101	0xbd900de1	-0.07033897
102	0xbde7bfce	-0.11315881
103	0xbe725b4b	-0.23667638
104	0x3e290107	0.16504298
105	0xbe3a89b3	-0.1821659
106	0xbe6a91be	-0.22907159
107	0xbe5b0e9d	-0.21392293
108	0xbd2c7049	-0.04209927
109	0xbca316fe	-0.019908424
110	0xbcf485f3	-0.029849028
111	0x3d1f3ab1	0.03887433
112	0x3dbf9a4e	0.09355603
113	0x3e02c0fe	0.12768933
114	0x3e2b37a5	0.16720445
115	0xbe7be834	-0.24600297
116	0xbda5c748	-0.080946505
117	0x3d43bbf1	0.047786657
118	0xbe1fe902	-0.15616229
119	0xbca58cac	-0.02020868
120	0xbe268e6a	-0.16265264
121	0x3e2a224f	0.1661465
122	0xbda3d576	-0.07999699
123	0x3e632457	0.22181831
124	0xbe7342ae	-0.23755905
125	0x3e014c9f	0.12626885
126	0x3eb92bf2	0.3616634
127	0xbdeafa0b	-0.11473473
128	0xbe3e071c	-0.185574
129	0x3d94316d	0.0723599
130	0x3d960602	0.07325365
131	0xbd0cf14d	-0.03440981
132	0x3e58c3f0	0.21168494
133	0x3d2489c5	0.04017045
134	0xbe2f3e7f	-0.17113684
135	0xba4fa225	-0.0007920585
136	0xbe531963	-0.20615153
137	0xbee27284	-0.44227993
138	0xbd4f0681	-0.050543312
139	0xbe010b9d	-0.12602086
140	0x3df0af82	0.117522255
141	0x3e83894a	0.2569068
142	0x3e334cc5	0.17509754
143	0x3e4775d0	0.19478536
144	0xbca0aa79	-0.019612538
145	0x3e7274eb	0.23677413
146	0x3d367729	0.044547234
147	0xbe11965e	-0.14217517
148	0xbdc0a657	-0.09406727
149	0xbd977b45	-0.07396559
150	0x3e1e9d6e	0.15489742
151	0xbcfbbc36	-0.030729394
152	0xbe178388	-0.14796269
153	0xbd3dd105	-0.046341915
154	0xbd5cab64	-0.05387439
155	0xbdea53a4	-0.114417344
156	0xbcb1fcea	-0.021727044
157	0x3d5ce8be	0.053932898
158	0x3d29e9e2	0.041482814
159	0x3e2dc2b7	0.16968809
160	0x3e050c0e	0.1299288
161	0x3e369d49	0.17833437
162	0x3dc037de	0.09385656
163	0x3dabf59c	0.08396456
164	0x3da48696	0.08033483
165	0x3df7fcb9	0.1210875
166	0x3ec6652a	0.38749057
167	0x3c87214c	0.01649537
168	0xbd34b3c3	-0.044116747
169	0x3d99f2ab	0.07516988
170	0xbe0bcd1e	-0.13652465
171	0xbe03499d	-0.1282105
172	0x3e3b16d8	0.18270433
173	0xbe831610	-0.2560277
174	0xbe4ef7d8	-0.20211732
175	0x3de1d18c	0.11026296
176	0xbe6e3286	-0.2326146
177	0xbbc1f00f	-0.00591851
178	0x3bd63b54	0.006537834
179	0x3e052cbb	0.13005345
180	0xbdb8ebfd	-0.09029386
181	0xbe0cf0be	-0.13763711
182	0x3d5ec322	0.054385312
183	0xbe2b6839	-0.16738977
184	0xbeaee507	-0.3415911
185	0x3db54999	0.08851928
186	0x3e0300bc	0.12793249
187	0x3bbef1fa	0.0058271857
188	0x3d82deef	0.063901775
189	0xbe1d36a3	-0.15352874
190	0xbdfc0583	-0.12305739
191	0x3e1b2fe4	0.15154988
192	0xbe20cc99	-0.15703048
193	0x3dfca356	0.12335841
194	0x3e029f0f	0.12755989
195	0x3d362dbc	0.04447721
196	0x3d04ee8c	0.03245406
197	0xbc96b714	-0.018397845
198	0x3de9d5bf	0.11417722
199	0xbddc9a37	-0.10771602
200	0x3e751a71	0.23935868
201	0x3d16a3d9	0.03677735
202	0x3d58ebfd	0.05295943
203	0xbcc0e10d	-0.023544813
204	0xbe5b05ca	-0.21388927
205	0xbde2f46b	-0.11081775
206	0xbda85cc3	-0.08220818
207	0x3e3d11ff	0.18463896
208	0xbdf3330c	-0.11874971
209	0xbe1ee462	-0.15516809
210	0xbc9584ae	-0.018251743
211	0xbe5d2106	-0.21594629
212	0xbdcaef3b	-0.09908911
213	0xbc96c85b	-0.018406084
214	0x3db68fa8	0.08914119
215	0xbd1350e6	-0.035965823
216	0xbce6b50d	-0.028162504
217	0x3e6e44da	0.23268452
218	0xbdf041ca	-0.11731298
219	0xbe5a576f	-0.21322416
220	0x3dca4b9d	0.09877703
221	0x3d404302	0.046938904
222	0xbb80b56b	-0.0039278767
223	0xbec0b844	-0.37640584
224	0x3df4958c	0.11942586
225	0x3cca69e9	0.024708705
226	0x3de6363c	0.11240813
227	0xbde919f4	-0.11381903
228	0xbdaa8577	-0.08326238
229	0x3d8df64d	0.06931744
230	0x3e01e251	0.12683989
231	0xbda65cb1	-0.08123148
232	0xbe04212b	-0.12903278
233	0xbd856955	-0.06514231
234	0x3e11a8f8	0.14224613
235	0xbd8ae0e6	-0.06781177
236	0xbc8cbecd	-0.017180825
237	0x3e060b2b	0.13090198
238	0x3d8db228	0.06918746
239	0xbe18c455	-0.14918645
240	0xbe257d2f	-0.16161035
241	0xbe8e605d	-0.27807894
242	0x3e97d26c	0.29652727
243	0x3dcff29f	0.10153698
244	0x3dd58b8f	0.10427009
245	0xbd9cf4f3	-0.07663908
246	0xbd93125b	-0.071812354
247	0xbe67f33a	-0.22651377
248	0xbd1194f2	-0.035542436
249	0x3e6fab84	0.23405272
250	0xbdad35f7	-0.084575586
251	0x3d4d2552	0.05008442
252	0x3c9f071b	0.019412568
253	0xbd7ee63b	-0.062231284
254	0x3cdf520e	0.027260806
255	0xbd221bf2	-0.039577432

decoder.conv2_lower2.bias f4 [8]
0	0xbe347377	-0.17622171
1	0x3d97055a	0.073740676
2	0xbe1ce0d3	-0.15320139
3	0x3e027176	0.12738594
4	0x3c01449f	0.007889896
5	0xbc92efe0	-0.017936647
6	0x3cc90cba	0.024542201
7	0xbe2193ea	-0.15779081

decoder.bn2_lower2.weight f4 [8]
0	0x3f28bad4	0.6591008
1	0x3f73f8e5	0.9530166
2	0x3f5a7e4a	0.8534895
3	0x3f2b634c	0.6694839
4	0x3f4589fc	0.7716367
5	0x3f54aba9	0.8307443
6	0x3f50961b	0.8147904
7	0x3f2b8ea7	0.67014545

decoder.bn2_lower2.bias f4 [8]
0	0x3d3554d5	0.044270355
1	0xbd3721d9	-0.044710014
2	0xbc3e3054	-0.011608202
3	0x3d33884f	0.043831166
4	0x3ba13c50	0.00492052
5	0xbd2ee02b	-0.042694252
6	0xbd01fb47	-0.031733777
7	0xbda7242e	-0.081611976

decoder.bn2_lower2.running_mean f4 [8]
0	0xbe1b5aa6	-0.15171298
1	0x3dcd84e4	0.100351125
2	0xbe0aeb01	-0.1356621
3	0x3de4f394	0.11179271
4	0x3d87d19f	0.06631779
5	0x3c130679	0.008973711
6	0x3c2bb73b	0.010480697
7	0xbdbcf4e2	-0.09226395

decoder.bn2_lower2.running_var f4 [8]
0	0x3f021940	0.5081978
1	0x3efe46db	0.49663433
2	0x3ea56918	0.32306743
3	0x3eb2e917	0.34943458
4	0x3f08e271	0.5347052
5	0x3e9cde7d	0.30638495
6	0x3f0f43dd	0.55962926
7	0x3e843f82	0.25829703
